models/lstm_breath_model.pth (torch, 45228 bytes, 5 tensors)

lstm.weight_ih_l0 f4 [200, 1]
0	0x3e38c3b1	0.180434
1	0x3ea9a4f1	0.33133653
2	0xbe37d77d	-0.17953296
3	0xbf3bcd54	-0.7336018
4	0x3eafa42d	0.34304944
5	0xbd6e2409	-0.058139835
6	0xbeb8d5c7	-0.361006
7	0xbc9363b2	-0.017991874
8	0x3e553394	0.20820457
9	0x3f096fed	0.5368641
10	0x3e8cb8a9	0.27484635
11	0x3e52732e	0.2055175
12	0xbeca91e1	-0.39564422
13	0x3f2de75d	0.6793116
14	0x3d7e49a8	0.062081963
15	0x3e3f1c0e	0.18663046
16	0x3f12703e	0.5720252
17	0x3e0468fb	0.12930672
18	0xbd3ecf85	-0.046584625
19	0xbce66125	-0.028122494
20	0xbc569f8e	-0.013099564
21	0x3eb3a742	0.35088545
22	0x3e41dbcf	0.18931507
23	0x3e04bf37	0.12963568
24	0x3f0a48ed	0.54017526
25	0x3ec421f3	0.3830715
26	0x3eb2dea2	0.3493548
27	0xbe32139d	-0.17390294
28	0x3f063f83	0.5244066
29	0x3ec3fc28	0.38278317
30	0xbcf61e4a	-0.03004374
31	0x3e87d1bf	0.2652721
32	0xbec1e7c0	-0.37872124
33	0x3eeff2e7	0.46865007
34	0xbe72e1e5	-0.23718984
35	0x3f15f0e0	0.5857067
36	0x3eb8adb0	0.36070013
37	0x3ea5b16b	0.32361922
38	0xbe560762	-0.20901254
39	0xbe8a11c7	-0.26966688
40	0x3c9e6b04	0.019338138
41	0x3e50fcef	0.20408987
42	0xbe58f4f6	-0.21187195
43	0xbd881d88	-0.06646258
44	0x3dfbeab0	0.123006225
45	0x3cbd523b	0.0231105
46	0x3e39552b	0.18098895
47	0x3f279f09	0.65477043
48	0xbe5ee850	-0.21768308
49	0xbeb2b05e	-0.34900182
50	0xbe1a36ed	-0.15060015
51	0x3e83bccf	0.25729987
52	0xbde25053	-0.11050477
53	0xbf105a72	-0.5638801
54	0x3e29fb41	0.16599752
55	0xbe3260a5	-0.1741968
56	0xbe466f10	-0.19378304
57	0x3c8e65bd	0.017382497
58	0x3cc52741	0.02406657
59	0x3dd7fa99	0.105458446
60	0x3e15561f	0.14583634
61	0x3e7fd914	0.24985152
62	0xbee7f469	-0.45303658
63	0xbdd1d64a	-0.102459505
64	0xbe188e48	-0.14898026
65	0x3c484ba1	0.012225063
66	0x3f0cfd32	0.55073845
67	0xbe8586f4	-0.26079524
68	0x3e42db1d	0.19028898
69	0x3e8c6d17	0.2742698
70	0xbe10e1de	-0.14148661
71	0xbe84c715	-0.25933138
72	0x3e2132ae	0.15741989
73	0x3e01d9d3	0.1268075
74	0x3eaefd18	0.3417747
75	0xbe30fe29	-0.17284454
76	0x3e40fe4e	0.1884701
77	0x3da127d3	0.07868924
78	0xbe273764	-0.16329724
79	0xbd98ca99	-0.074605174
80	0xbec34af6	-0.38143128
81	0xbe4d2eb9	-0.20037355
82	0xbe84e1bd	-0.25953475
83	0x3e939ae0	0.28829098
84	0x3d846981	0.06465436
85	0x3ea8ccfa	0.32968885
86	0xbe8fd0ef	-0.2808909
87	0x3e7bceb1	0.24590565
88	0xbd9923f9	-0.07477564
89	0xbdb224ba	-0.08698411
90	0xbddeca97	-0.10878485
91	0xbcb165f7	-0.021655066
92	0xbda35de4	-0.079768926
93	0xbe2a849d	-0.1665215
94	0x3e0b00e1	0.13574554
95	0x3d5d0bb9	0.053966258
96	0x3e2e9254	0.17048007
97	0x3ebb9573	0.36637458
98	0xbef46eda	-0.47740823
99	0x3cef6817	0.029224439
100	0xbe71a543	-0.23598199
101	0x3eae1a12	0.34004265
102	0x3e89b173	0.26893196
103	0x3e1c103f	0.15240572
104	0xbe642327	-0.22279035
105	0xbe35c4c1	-0.17750837
106	0xbc599d1b	-0.013282086
107	0xbdfb303d	-0.1226506
108	0x3e2c0ef1	0.16802575
109	0x3ef176e5	0.47161022
110	0x3e8be12b	0.27320227
111	0xbe8265b7	-0.25468227
112	0x3cbc8520	0.023012698
113	0xbf3b739c	-0.7322328
114	0x3e300818	0.17190588
115	0xbe920f1d	-0.28527156
116	0xbeb893e1	-0.36050323
117	0x3e579874	0.2105425
118	0xbc8c393c	-0.017117135
119	0xbba99070	-0.005174689
120	0xbe5887d2	-0.21145561
121	0x3e9c756e	0.30558342
122	0x3e49561e	0.19661757
123	0xbdf210b0	-0.11819589
124	0x3ee91ccd	0.45529786
125	0xbeaaa933	-0.33332214
126	0xbec3e027	-0.38256952
127	0x3e7cd4f6	0.24690613
128	0x3e994fad	0.299436
129	0x3e8bef04	0.27330792
130	0x3e5fc866	0.2185379
131	0xbe9d7623	-0.30754194
132	0xbe89f904	-0.26947796
133	0xbf075b80	-0.5287399
134	0xbdc0c3c1	-0.09412337
135	0xbee4bc0c	-0.44674718
136	0x3eb2b5b6	0.3490426
137	0xbe399b6e	-0.18125698
138	0x3ea10339	0.3144777
139	0xbe37a274	-0.17933065
140	0x3e357901	0.1772194
141	0xbe417b80	-0.18894768
142	0x3d72be07	0.059263255
143	0xbe813869	-0.2523835
144	0x3ea2c12c	0.31788003
145	0xbe44b1ba	-0.19208422
146	0xbe84545b	-0.25845608
147	0xbee61d7c	-0.4494437
148	0xbd42adab	-0.047528904
149	0x3e1febf9	0.1561736
150	0x3ec2bbf5	0.38034025
151	0x3ed2f1b8	0.41200042
152	0x3de665ec	0.11249909
153	0xbf669430	-0.90069866
154	0x3ed21b9f	0.41036698
155	0xbdfc4bb4	-0.12319127
156	0xbebec077	-0.37256214
157	0x3d0bd710	0.034140646
158	0x3e80875e	0.25103277
159	0x3ed3b308	0.41347528
160	0x3ee8de48	0.45482087
161	0x3ecc2cf5	0.3987805
162	0xbe6bb19d	-0.23016973
163	0x3f78ece2	0.97236454
164	0x3e53c598	0.20680845
165	0x3ed2d3ba	0.4117716
166	0x3f9834dd	1.1891133
167	0xbe186e08	-0.14885724
168	0x3d731e36	0.059354983
169	0xbc9ff3ec	-0.01952549
170	0x3c8ad4db	0.0169472
171	0x3f041fae	0.5161084
172	0x3d944c9e	0.07241176
173	0x3e8e25c3	0.27763185
174	0x3f25f6a2	0.64829457
175	0x3f308f6e	0.68968856
176	0x3ebea593	0.37235698
177	0x3d76d3a1	0.06026042
178	0x3f38c35a	0.7217308
179	0x3ee87ca0	0.4540758
180	0xbc630da7	-0.013858235
181	0x3e15fb5c	0.14646667
182	0xbea4b71c	-0.3217095
183	0x3f321358	0.69560766
184	0x3dfccd80	0.123438835
185	0x3f33bd6f	0.7021093
186	0x3e882e57	0.26597854
187	0x3f2130e4	0.62965226
188	0xbdbfac80	-0.09359074
189	0xbe77048a	-0.24122825
190	0x3c3f057c	0.011659022
191	0x3e7d77d4	0.24752742
192	0xbe2a2be3	-0.16618304
193	0xbd665bc9	-0.056239877
194	0x3e68f70e	0.22750494
195	0x3e892eb2	0.26793438
196	0x3ecfd34b	0.4059089
197	0x3f426bd3	0.75945777
198	0xbec14ae3	-0.37752447
199	0xbeb74ddf	-0.35801598

lstm.weight_hh_l0 f4 [200, 50]
0	0xbe851a94	-0.2599684
1	0x3d988ea4	0.074490815
2	0xbd166bef	-0.036724027
3	0xbfb4b648	-1.4118128
4	0xbe00f241	-0.12592413
5	0x3e55d299	0.20881118
6	0x3f064d37	0.5246157
7	0xbd4485dd	-0.047979224
8	0x3e5d2e6c	0.2159974
9	0xbd2946f6	-0.04132744
10	0xbdfcd643	-0.12345555
11	0xbd0b90bb	-0.034073573
12	0xbe932a1f	-0.28743073
13	0x3e798e1c	0.24370617
14	0x3e69c846	0.22830305
15	0x3d9d5046	0.076813266
16	0xbbb8319c	-0.0056211483
17	0xbe968939	-0.29401568
18	0xbe16a404	-0.14711004
19	0xbf345da5	-0.7045539
20	0xbdd758d5	-0.1051499
21	0x3d31a691	0.04337174
22	0x3e2e8289	0.17041983
23	0x3d66c02d	0.056335617
24	0xbe274512	-0.16334942
25	0xbd38a156	-0.045075737
26	0x3df5ab48	0.1199556
27	0x3e2d822c	0.16944188
28	0xbe011401	-0.12605287
29	0xbd140f62	-0.036147483
30	0x3ebc3820	0.3676157
31	0x3e6d0dab	0.23149745
32	0x3e753653	0.23946504
33	0xbdbcb9b6	-0.09215109
34	0xbe8b3a97	-0.27193138
35	0xbdefd037	-0.11709636
36	0x3e4b0866	0.19827422
37	0xbe102670	-0.14077163
38	0xbe00a76d	-0.12563868
39	0x3e0d7e9b	0.13817827
40	0x3e6c66ca	0.23086086
41	0xbe0a18a0	-0.13485956
42	0x3cfee3c9	0.031114476
43	0x3ec99ba3	0.39376554
44	0x3e841f35	0.2580506
45	0xbd820a54	-0.06349626
46	0x3dc44dfe	0.09585188
47	0xbe618f53	-0.2202733
48	0x3ed06764	0.4070388
49	0xbe6860ff	-0.22693251
50	0xbea99681	-0.33122638
51	0x3e7d3044	0.24725443
52	0x3e841a36	0.25801247
53	0xbd8a2766	-0.06745796
54	0xbe54e606	-0.20790872
55	0xbcbbfa01	-0.02294636
56	0x3e146636	0.14492115
57	0xbd0ecfa4	-0.03486599
58	0xbc4fbf49	-0.012679883
59	0x3cc09f16	0.023513358
60	0x3cdde18d	0.02708509
61	0xbd0fb8a2	-0.03508819
62	0x3d7de5c3	0.061986696
63	0xbe96e92a	-0.29474765
64	0x3e444f5d	0.191709
65	0xbd222963	-0.03959025
66	0xbce9448c	-0.028475069
67	0xbdc8f9ef	-0.09813296
68	0xbe2050b6	-0.15655789
69	0xbd9a6bc4	-0.07540086
70	0xbbccd8c8	-0.0062514283
71	0x3ebbeb26	0.36702842
72	0xbd4cb688	-0.049978763
73	0x3d9a1cac	0.07525
74	0x3e611a78	0.21982753
75	0xbe8d2745	-0.27569023
76	0xbe1a7299	-0.15082778
77	0x3e1d4f6c	0.15362328
78	0x3eacff17	0.33788368
79	0x3e4401fa	0.19141379
80	0x3e0fc80a	0.14041153
81	0x3e0b6620	0.13613176
82	0xbe3d8ff7	-0.1851195
83	0x3ca425af	0.0200375
84	0xbd37542b	-0.044758003
85	0xbe3d5b3c	-0.18491834
86	0x3e11fc5b	0.14256422
87	0xbe17f860	-0.14840841
88	0xbc25578a	-0.010091672
89	0x3cb88574	0.022524573
90	0x3e0d7587	0.13814364
91	0xbe5b323d	-0.21405883
92	0xbe6f34b4	-0.23359948
93	0x3c2bf351	0.010495023
94	0x3d6aa623	0.057287347
95	0xbe9c9179	-0.30579737
96	0x3c6a41d0	0.0142979175
97	0xbdf32328	-0.1187194
98	0xbe9e4874	-0.30914652
99	0x3c611701	0.013738395
100	0x3dee5d1e	0.116388544
101	0xbdec681c	-0.11543295
102	0xbee7c3f4	-0.45266688
103	0xbf20e2c2	-0.62846005
104	0xbe19ab11	-0.15006663
105	0x3eafe081	0.3435097
106	0x3e4e2f7f	0.20135306
107	0x3e69bf99	0.22826995
108	0x3d357a28	0.04430595
109	0xbeade3b1	-0.33962777
110	0x3e195bf1	0.14976479
111	0xbc8abf41	-0.0169369
112	0xbe0c468f	-0.13698791
113	0x3f9f3c8e	1.2440355
114	0x3da5e03b	0.08099409
115	0xbdb00e46	-0.085964724
116	0xbd487d4f	-0.04894763
117	0xbf438f83	-0.76390857
118	0xbe45f721	-0.19332553
119	0xbf3b68fa	-0.73207057
120	0xbe6fc35a	-0.23414364
121	0x3d8efabe	0.06981419
122	0xbd408b32	-0.047007747
123	0xbd490e73	-0.049086045
124	0xbf673a19	-0.90323025
125	0x3e22b01e	0.15887496
126	0x3e5a0837	0.21292196
127	0x3e399e7b	0.18126862
128	0xbe840343	-0.25783738
129	0xbe3cb745	-0.18429287
130	0x3e8369fc	0.25666797
131	0x3eb3e809	0.35137966
132	0x3de3ec14	0.11129013
133	0x3ebbc5db	0.3667439
134	0xbe484ac8	-0.19559777
135	0x3e58d0e6	0.21173438
136	0xbe01c742	-0.12673667
137	0xbe177d10	-0.14793801
138	0xbedc6f59	-0.43053702
139	0x3e9fd2d6	0.31215543
140	0x3ee21fb8	0.44164824
141	0x3dc4a84b	0.09602412
142	0x3e10a3c6	0.14124975
143	0x3f23762f	0.6385221
144	0xbd107f52	-0.035277672
145	0x3d2f7688	0.04283765
146	0x3eb4a504	0.35282147
147	0x3e850ecd	0.25987855
148	0xbd538f0b	-0.05165009
149	0xbe86f381	-0.26357654
150	0x3fd0e180	1.6318817
151	0xbf9ca935	-1.2239138
152	0xc023b52d	-2.557933
153	0x3f42b418	0.7605605
154	0x3f9bf35a	1.218364
155	0x3f9abe41	1.2089311
156	0xbf7da6e1	-0.9908276
157	0x3f7b55a0	0.9817753
158	0xbe407e42	-0.18798164
159	0xbf12b002	-0.57299817
160	0xbfaeca6c	-1.3655524
161	0x3f74e327	0.95659107
162	0x3ebc12a3	0.3673297
163	0x400e727b	2.2257373
164	0xbf824d88	-1.0179911
165	0x3f4e27dc	0.8052957
166	0x3fa5e385	1.2960058
167	0xbf0ffed4	-0.5624821
168	0x3d7c6c2f	0.06162661
169	0x3ecdf7e3	0.40228185
170	0x3f9da74b	1.2316679
171	0xbfb1e67d	-1.3898464
172	0xbe718271	-0.23584916
173	0x3f0bc583	0.54598254
174	0xc019740c	-2.397708
175	0x3fad9bf7	1.3563222
176	0x3fce1e80	1.6103058
177	0xbf9ff640	-1.2497025
178	0xbfe169e7	-1.7610444
179	0xbfd3c078	-1.6543112
180	0xbfc80df6	-1.562926
181	0x3fa32700	1.2746277
182	0x3f2c6cec	0.673537
183	0x3f4a01eb	0.78909177
184	0x3f15328c	0.58280253
185	0x3e777758	0.2416662
186	0xc006ba46	-2.1051192
187	0x3efc1968	0.49238133
188	0xc00de58a	-2.217135
189	0x3f8f4043	1.1191486
190	0xbf56122a	-0.83621466
191	0x3fb69165	1.4263121
192	0xbee152e4	-0.44008553
193	0x3fa702cd	1.304773
194	0xbf0741d2	-0.5283481
195	0x3fcd53a7	1.6041154
196	0x3f82486d	1.0178353
197	0x3e65f350	0.22456098
198	0xbe6e1cf8	-0.23253238
199	0xbee883cf	-0.45413062
200	0xbdd92be2	-0.10604073
201	0x3e204af0	0.15653586
202	0x3e5993f9	0.21247853
203	0xbe892ac8	-0.26790452
204	0xbe27224e	-0.1632168
205	0xbde4182d	-0.11137424
206	0xbddcdc2f	-0.10784184
207	0x3e33d630	0.17562175
208	0x3dbf48eb	0.0934008
209	0xbdf9b994	-0.12193599
210	0x3e556e25	0.20842798
211	0x3d0c30dd	0.034226287
212	0x3cb265ca	0.021777052
213	0xbe03fd8f	-0.12889694
214	0x3e40b40c	0.18818682
215	0xbe242927	-0.16031323
216	0x3d9bec6c	0.07613453
217	0x3dbf7207	0.09347921
218	0x3dd17eb1	0.102292426
219	0xbdd42740	-0.10359049
220	0xbd026b33	-0.031840514
221	0x3e228f96	0.15875086
222	0x3e043ead	0.12914534
223	0xbda58375	-0.08081714
224	0x3e98e381	0.29861072
225	0xbe294c98	-0.16533124
226	0xbe23494f	-0.15945934
227	0x3e0114bb	0.12605564
228	0x3df46b5a	0.11934538
229	0x3de89bae	0.113578185
230	0x3d8094eb	0.06278404
231	0xbdeaf23c	-0.11471984
232	0xbebab4ec	-0.36466157
233	0x3dcbf663	0.09959104
234	0x3de6e841	0.11274768
235	0x3d790fa7	0.060805943
236	0x3e15f583	0.14644437
237	0x3cfeaf6c	0.031089507
238	0x3e070a7b	0.13187592
239	0xbdb6f769	-0.089339085
240	0x3e4eb123	0.2018476
241	0xbe44bf12	-0.19213513
242	0xbe39aa8f	-0.18131469
243	0xbe0d8bb1	-0.1382282
244	0x3d0d9cc2	0.034573324
245	0x3d55c28a	0.05218748
246	0xbe03297f	-0.12808798
247	0xbda4d482	-0.08048345
248	0xbe9af699	-0.30266264
249	0x3d7dea83	0.061991226
250	0xbdc96028	-0.098327935
251	0xbdbbda02	-0.09172441
252	0xbe495132	-0.1965988
253	0xbdb8bc51	-0.090202935
254	0xbdb219aa	-0.08696301
255	0xbd2836e1	-0.04106796

lstm.bias_ih_l0 f4 [200]
0	0x3ebac9ba	0.3648203
1	0x3c74be2c	0.014937919
2	0x3e238308	0.15967953
3	0x3e9c2b49	0.30501774
4	0x3ccb8f74	0.024848677
5	0x3d8e953c	0.06962058
6	0x3e531ccd	0.20616455
7	0xbdc71022	-0.09719874
8	0x3da59ca2	0.08086516
9	0x3e394274	0.18091756
10	0x3d99c565	0.07508353
11	0xbdf70d26	-0.12063055
12	0xbe2dc647	-0.16970168
13	0x3eb55ebd	0.35423842
14	0xbbe6133e	-0.007021337
15	0x3e727a97	0.23679577
16	0x3db1f458	0.08689183
17	0xbd02b4e6	-0.0319108
18	0xbdeec8b3	-0.11659374
19	0x3e5899b1	0.21152379
20	0x3dc83b64	0.09776953
21	0x3f0f4480	0.559639
22	0xbd5b665a	-0.053564407
23	0xbe69b992	-0.22824696
24	0x3e396fda	0.18109074
25	0x3e6ac19c	0.22925419
26	0xbd316f47	-0.043319013
27	0x3d2ca29b	0.04214726
28	0x3ef3e9b5	0.47639242
29	0x3ea9058c	0.33012044
30	0x3d7ce886	0.06174519
31	0x3e0aa0db	0.13537924
32	0x3ddd8e5d	0.10818169
33	0x3e86a65b	0.26298794
34	0xbe0d9faa	-0.13830438
35	0x3e060f70	0.13091826
36	0x3ec0446f	0.3755221
37	0x3de45ed4	0.111508995
38	0x3e3750a3	0.17901854
39	0x3dd6b26a	0.104832485
40	0x3e03146c	0.12800759
41	0x3e0574ab	0.13032787
42	0xbe0c0a0f	-0.13675712
43	0xbc53c284	-0.012924794
44	0x3df5f47f	0.120095246
45	0x3d3db0a9	0.046311054
46	0xb9ef56e7	-0.0004565038
47	0x3e96a218	0.29420543
48	0x3d4bb992	0.04973752
49	0xbccee07a	-0.025253523
50	0xbe95c4fa	-0.29251844
51	0xbd5778da	-0.052605487
52	0xbe86e644	-0.26347554
53	0xbf083374	-0.5320351
54	0xbe577f26	-0.21044597
55	0xbc31791a	-0.0108320955
56	0xbd7603af	-0.060062107
57	0xbe9db2c0	-0.30800438
58	0x3d82af87	0.063811354
59	0xbe026500	-0.12733841
60	0x3cf629d0	0.030049235
61	0x3b8e66b1	0.004345738
62	0xbe21b3bb	-0.15791218
63	0xbe027e38	-0.12743461
64	0xbe0eea5b	-0.13956587
65	0xbc79460d	-0.015214455
66	0xbdd48d62	-0.10378529
67	0xbd8ec246	-0.069706485
68	0xbd8e12a4	-0.06937149
69	0x3d4de6b4	0.050268844
70	0xbe10b887	-0.14132892
71	0xbcbae7fd	-0.022815699
72	0xbdd525ec	-0.10407624
73	0xbd1b1a18	-0.03786668
74	0xbda54908	-0.0807057
75	0xbd06567e	-0.03279733
76	0xbe44c30b	-0.19215028
77	0xbdd0dfd4	-0.10198942
78	0xbe58e033	-0.21179275
79	0xbcb72be1	-0.02235979
80	0xbe8ddc82	-0.27707297
81	0xbe5d0ac7	-0.21586142
82	0xbdf90933	-0.12159958
83	0xbca0d5b8	-0.019633159
84	0xbe994160	-0.2993269
85	0xbc36d42d	-0.011158985
86	0xbeb9336b	-0.3617204
87	0xbdb861eb	-0.09003051
88	0xbe5fcd5f	-0.21855687
89	0x3c1422f9	0.009041541
90	0x3d5c19f2	0.05373568
91	0xbcb77d12	-0.022398505
92	0xbe449610	-0.1919787
93	0xbdff076f	-0.1245259
94	0xbdbb271e	-0.091383204
95	0xbe5c8ba3	-0.21537642
96	0xbe2767d9	-0.16348208
97	0x3d974c9b	0.07387658
98	0xbe8f8768	-0.28032994
99	0xbe826dc9	-0.25474384
100	0xbd591ed0	-0.0530079
101	0x3de03102	0.109468475
102	0xbd6e2541	-0.058140997
103	0xbda5184d	-0.08061276
104	0xbd3feb18	-0.046855062
105	0x3dff6d3b	0.12472006
106	0xbd1e6e4c	-0.038679406
107	0x3dccc5b9	0.0999865
108	0x3d83a007	0.06427007
109	0x3d8fdf6a	0.07025035
110	0x3d76a57a	0.060216404
111	0xbd5b8e7c	-0.05360268
112	0xb7da4a48	-2.6022215e-05
113	0x3d7cf196	0.06175383
114	0x3cffc76d	0.031223023
115	0xbd545db7	-0.051847186
116	0xbd5ff38e	-0.05467563
117	0xbdef685a	-0.11689825
118	0xbdb5a4c9	-0.08869321
119	0x3cd560e1	0.026047172
120	0x3d508bbf	0.050914522
121	0x3dcd0221	0.10010172
122	0xbd32ecb4	-0.04368277
123	0xbd7c7df8	-0.06164357
124	0x3c868fc1	0.01642597
125	0x3cc9bd3a	0.024626363
126	0x3e1c88ce	0.15286562
127	0x3d4df4e7	0.050282385
128	0xbb06b137	-0.0020552406
129	0xbd64dab5	-0.055872638
130	0x3c91c324	0.017793246
131	0x3e174826	0.14773616
132	0x3d4ac9a1	0.049508695
133	0xbda284c5	-0.0793548
134	0x3db654e3	0.089029096
135	0xbd54fcbb	-0.051998835
136	0xbdd009e8	-0.101581395
137	0xbde0eb5b	-0.109823905
138	0xbe1c18ab	-0.15243785
139	0x3dc5a9c8	0.09651524
140	0x3da9cf48	0.08291489
141	0xbd6bb1f6	-0.057542764
142	0x3b973c02	0.004615308
143	0xbc0c59df	-0.008566349
144	0x3db281f9	0.087161966
145	0xbc55c7dc	-0.0130481385
146	0x3de70d82	0.11281873
147	0x3d77def1	0.060515348
148	0xbd3f2303	-0.04666425
149	0xbd20fb2b	-0.039302032
150	0x3e5d8b4c	0.21635169
151	0x3e519c58	0.20469797
152	0x3ed7c4dc	0.4214238
153	0x3e82e4b3	0.2556511
154	0xbc70755d	-0.014676419
155	0x3d9ff7f9	0.07810969
156	0x3dc0d744	0.09416059
157	0x3d717490	0.058949053
158	0xbe3cd986	-0.18442354
159	0x3ecf49ee	0.4048609
160	0x3db5bd37	0.088739805
161	0xbb273908	-0.002551617
162	0xbdff5c1f	-0.124687426
163	0x3eba92f7	0.3644025
164	0xbb15fe39	-0.0022887124
165	0x3cd67a4c	0.026181363
166	0x3d391a33	0.045191
167	0xbcdabf73	-0.026702618
168	0x3c97bff4	0.018524148
169	0xbcfdbecd	-0.03097477
170	0x3da2c616	0.07947938
171	0x3f1f14d1	0.6214114
172	0x3dbcadb0	0.09212816
173	0xbd7630a7	-0.060104992
174	0x3e3b8131	0.18311001
175	0x3e4ece09	0.20195784
176	0x3c356dcf	0.011073544
177	0x3e282127	0.16418897
178	0x3e804b08	0.25057244
179	0x3dd602aa	0.10449727
180	0x3e3c29f5	0.1837538
181	0xbcb52f4e	-0.022117283
182	0xbcd117b8	-0.025524005
183	0x3e4ff0e9	0.20306744
184	0xbd84a7d5	-0.06477324
185	0x3e7b3616	0.24532351
186	0x3e65f690	0.22457337
187	0xbe293751	-0.16525008
188	0x3e880e48	0.26573396
189	0x3caeb3ad	0.02132591
190	0x3e184df8	0.14873493
191	0x3dd11ac2	0.10210182
192	0xbe74a2ee	-0.23890278
193	0x3cfaeeff	0.03063154
194	0xbda2b0ae	-0.07943855
195	0x3dc737fe	0.097274765
196	0xbca72bbc	-0.020406596
197	0x3e68bbb6	0.22727856
198	0x3d1fab89	0.038981948
199	0xbde6311f	-0.11239838

lstm.bias_hh_l0 f4 [200]
0	0x3e30812a	0.17236772
1	0xbcdc5077	-0.026893837
2	0x3ea21cca	0.3166259
3	0x3e85c487	0.261265
4	0x3dac3995	0.084094204
5	0xbdeb0a14	-0.114765316
6	0x3e2f0d63	0.1709495
7	0xbe3bb01f	-0.18328904
8	0xb995dd39	-0.00028584318
9	0x3ecc546d	0.39908162
10	0xbd025eea	-0.0318288
11	0xbe00d255	-0.12580235
12	0xbe28b49f	-0.16475151
13	0x3eae1d03	0.3400651
14	0x3aa972bf	0.0012927874
15	0x3e51743d	0.20454498
16	0x3e306e9c	0.17229694
17	0xbc8769f6	-0.016530018
18	0xbe225616	-0.15853152
19	0x3dbb7da7	0.09154826
20	0x3df00340	0.1171937
21	0x3f28a03a	0.65869486
22	0x3c4a9254	0.012363989
23	0xbe691778	-0.22762859
24	0x3e967639	0.29387072
25	0x3e88c9b1	0.26716378
26	0x3d883ca6	0.06652193
27	0x3d9f1fd1	0.077697404
28	0x3ed50059	0.41601828
29	0x3e32a887	0.174471
30	0x3dba8773	0.09107866
31	0x3e766c0f	0.24064659
32	0x3dcd0ea7	0.1001256
33	0x3e2b51bd	0.167304
34	0xbe217ffc	-0.15771478
35	0x3db7fc19	0.08983631
36	0x3e910215	0.283219
37	0x3d844f8a	0.06460483
38	0x3e80102d	0.2501234
39	0xbbf15be5	-0.007365691
40	0x3dbef161	0.09323383
41	0x3d67b249	0.05656651
42	0xbe96966d	-0.2941164
43	0xbcf8f1e2	-0.030388776
44	0x3cfeb9ab	0.031094393
45	0xbdd2b693	-0.102887295
46	0xbd067bc9	-0.032832894
47	0x3e731800	0.23739624
48	0x3b1701d6	0.0023041866
49	0x3d418528	0.04724613
50	0xbe61ff36	-0.22070011
51	0xbdf75599	-0.12076873
52	0xbcd341d3	-0.025788223
53	0xbf32907a	-0.69751704
54	0x3ce3261b	0.027728131
55	0x3c397146	0.01131851
56	0xbe64f734	-0.22359926
57	0xbe83fabf	-0.25777242
58	0xbcd66a07	-0.026173605
59	0x3dc2ae80	0.095059395
60	0xbd94abfc	-0.07259366
61	0x3c94e172	0.018173907
62	0xbd003172	-0.031297155
63	0xbe54bab2	-0.20774344
64	0xbd8921ea	-0.06695922
65	0xbe262ab9	-0.16227235
66	0xbdbf7c68	-0.093499005
67	0x3c905bc3	0.01762188
68	0xbe1dcb6d	-0.15409632
69	0x3da66435	0.08124582
70	0xbe44a5ae	-0.19203827
71	0xbd4409f7	-0.047861066
72	0xbe28e33e	-0.16492936
73	0xbde65d54	-0.1124827
74	0xbddffbf4	-0.10936728
75	0xbd2f976c	-0.042869017
76	0xbe1480b3	-0.1450222
77	0x3cd7216d	0.026261056
78	0xbe0f80fb	-0.14014046
79	0x3ca51179	0.020149933
80	0xbef987c0	-0.48736382
81	0xbe398875	-0.1811846
82	0xbeaed36e	-0.34145683
83	0x3dd2b516	0.10288446
84	0xbe8565bb	-0.26054177
85	0x3da18fd6	0.07888763
86	0xbee2fb2f	-0.44332263
87	0x3d330f1c	0.04371558
88	0xbdfd7956	-0.123766586
89	0xbd144569	-0.036199007
90	0x3de71ee6	0.1128519
91	0xbdf1d2fc	-0.1180782
92	0xbe15fb54	-0.14646655
93	0xbe714e0b	-0.23564927
94	0x3a457ebc	0.00075338385
95	0xbdbb7f36	-0.09155123
96	0xbd414292	-0.047182627
97	0xbd2fbeb6	-0.042906485
98	0xbe237ad8	-0.1596483
99	0xbe5e2cd7	-0.21696793
100	0xbd43808a	-0.047730006
101	0xbd877882	-0.06614782
102	0x3d19de59	0.037565563
103	0xbdf3f4b3	-0.11911907
104	0xbd281d24	-0.041043416
105	0xbddcd061	-0.107819326
106	0x3d734ac2	0.059397466
107	0xbd7b23cb	-0.06131343
108	0x3dd94be1	0.10610176
109	0xbdbbe54a	-0.09174593
110	0xbdb6206a	-0.08892901
111	0x3c16ae47	0.009196824
112	0xbccd0be2	-0.02503008
113	0x3db3e9bb	0.08784815
114	0x3c25714d	0.010097814
115	0x3cedec70	0.029043406
116	0x3d7e47db	0.062080245
117	0xbdbea166	-0.09308128
118	0x3d8b98cb	0.06816252
119	0xbda5340f	-0.0806657
120	0xbd9a0bad	-0.07521758
121	0xbd5f00b3	-0.054444026
122	0x3da460d4	0.08026281
123	0x3d506ac6	0.050883077
124	0xbd87a4e2	-0.06623246
125	0xb4150a80	-1.3880526e-07
126	0xbde8aec1	-0.11361457
127	0x3d1d5de1	0.038419608
128	0x3d199a0c	0.037500426
129	0x3db03c53	0.08605256
130	0x3b4cebe1	0.0031268524
131	0xbd9c040e	-0.07617961
132	0x3ae79269	0.0017667535
133	0x3e20e1bf	0.15711115
134	0xbdd3333d	-0.10312507
135	0x3d95c137	0.073122434
136	0x3d89fdfe	0.06737898
137	0x3dac036d	0.08399091
138	0x3d764b71	0.06013054
139	0xbcf6898d	-0.030094886
140	0x3cfdea1f	0.030995427
141	0x3d8bc1f4	0.06824103
142	0xbd25f6e0	-0.04051864
143	0x3e03ef34	0.12884218
144	0x3c429422	0.011876138
145	0xbdbdcdb9	-0.09267754
146	0xbcd62091	-0.026138576
147	0xbc623ae5	-0.013807987
148	0xbde5c31c	-0.11218855
149	0xbd3360df	-0.043793555
150	0x3e92364e	0.28557056
151	0xbcac9f40	-0.02107203
152	0x3ea34a1c	0.31892478
153	0x3e99d163	0.30042562
154	0xbdd92d50	-0.10604346
155	0x3d9361b7	0.07196372
156	0x3ad0b0bc	0.0015921812
157	0xbd0bbda2	-0.034116395
158	0x3d76f684	0.06029369
159	0x3e24d88f	0.16098236
160	0xbda8c6a1	-0.082410105
161	0xbd50a755	-0.05094083
162	0xbd9172a1	-0.07101942
163	0x3f081d33	0.53169554
164	0x3b80e527	0.003933567
165	0x3e84f385	0.2596704
166	0x3df579d9	0.11986131
167	0xbe146420	-0.1449132
168	0xbe451238	-0.19245231
169	0x3e3c65a7	0.18398152
170	0x3e44444f	0.19166683
171	0x3f0cdaa5	0.55021125
172	0xbd6f5ddc	-0.05843912
173	0xbd6b8aca	-0.057505406
174	0x3e4dc229	0.20093597
175	0x3eaff793	0.34368572
176	0x3e50f3d3	0.20405512
177	0x3e63fe4b	0.22264974
178	0x3ee314df	0.4435186
179	0x3e842491	0.25809148
180	0xbc40ddc8	-0.011771627
181	0x3d8ecde7	0.069728665
182	0xbd1ecee7	-0.038771536
183	0x3e3f4e1d	0.18682142
184	0xbd9a090c	-0.07521257
185	0x3e5b5d16	0.21422228
186	0x3e7109be	0.23538873
187	0xbe48d37f	-0.1961193
188	0x3eab6943	0.33478746
189	0xbdb05d65	-0.086115636
190	0x3cac3567	0.021021558
191	0x3d9d5fc6	0.07684283
192	0xbde9025b	-0.113774024
193	0x3c7d4112	0.0154574085
194	0x3e17e9b7	0.14835249
195	0xbdef764a	-0.11692484
196	0xbdba3f93	-0.09094157
197	0x3dfefe22	0.12450816
198	0x3d5cfd7d	0.053952683
199	0x3d987c3d	0.074455716

fc.weight f4 [1, 50]
0	0xbc0226ab	-0.0079437895
1	0x3e4e95aa	0.2017428
2	0x3c5c58a0	0.013448864
3	0x3b2eaa0a	0.0026651644
4	0xbdd397a6	-0.10331659
5	0x3db86eec	0.09005532
6	0x3d60120f	0.054704722
7	0xbddde697	-0.10834997
8	0x3e1a07e4	0.15042073
9	0x3ed63d5f	0.41843697
10	0x3d8b12a9	0.067906685
11	0xbdd709ed	-0.1049994
12	0x3ca00228	0.019532278
13	0xbef6eb8b	-0.4822658
14	0x3c27045b	0.0101939095
15	0xbba87630	-0.005141042
16	0xbdedfdd4	-0.116206795
17	0x3df09426	0.11747007
18	0xbd9591f8	-0.07303232
19	0x3df89a43	0.12138798
20	0x3e0ee756	0.13955435
21	0xbd06f3af	-0.03294724
22	0x3e08e554	0.13368732
23	0xbda55cd3	-0.080743454
24	0x3edf7f98	0.43652034
25	0xbd15af22	-0.036543973
26	0xbe546794	-0.20742637
27	0xbd5b87a1	-0.053596143
28	0x3aef2fea	0.0018248532
29	0x3ce1cfa8	0.027564839
30	0x3c7a7014	0.015285511
31	0xbe7e4ccd	-0.24833985
32	0x3db84156	0.08996837
33	0xbe8f278a	-0.27959853
34	0xbd377787	-0.044791725
35	0xbe9e2d84	-0.308941
36	0x3e45cf2b	0.1931731
37	0xbdd980c4	-0.10620263
38	0x3d66abf3	0.056316327
39	0x3cb47bc0	0.022031665
40	0xbdcc1f3a	-0.099668935
41	0xbd86a468	-0.06574327
42	0x3c202266	0.009773826
43	0xbd91ea75	-0.07124797
44	0x3e4f497a	0.20242873
45	0xbe0a1d91	-0.13487841
46	0xbe07ccd4	-0.1326173
47	0xbe8fe0e7	-0.28101274
48	0x3e3880b2	0.18017843
49	0xbdcfdaea	-0.101491764
