models/lstm_heartbeat_model.pth (torch, 45258 bytes, 5 tensors)

lstm.weight_ih_l0 f4 [200, 1]
000000 97 f9 4a 3e c7 d6 a6 3c 56 b8 52 3d a6 ee bd 3e
       0.19821773 0.020366086 0.051445328 0.37096137
000010 3a 18 ad bd 49 31 1e 3e 97 71 ef 3b 7d df af be
       -0.084518865 0.15448488 0.007307242 -0.34350196
000020 86 ca 80 bd 3d 6f 1d 3c 4d 79 19 3e 10 f5 bb 3e
       -0.06288628 0.009609041 0.14987679 0.36710405
000030 56 86 2c 3e 03 a1 60 3e 42 24 93 3e 1f 73 0e 3e
       0.1684812 0.21936421 0.287386 0.13911103
000040 09 5f 83 3e 63 4b 73 3e aa 66 64 3e 37 9a 62 3e
       0.25658444 0.23759227 0.22304788 0.22129141
000050 ad b1 3a be 97 96 20 be 81 cf 7c bc cc 24 60 3e
       -0.1823184 -0.15682445 -0.015430332 0.21889037
000060 d2 22 d4 bd 74 c3 35 3e 35 df d0 3d 06 7a 54 3e
       -0.10358204 0.1775034 0.10198823 0.20749673
000070 c7 9d 73 3e 67 e9 ac 3d 77 78 59 3e 39 c4 08 be
       0.23790656 0.084429555 0.2123736 -0.13356103
000080 65 84 70 3e 6f 17 d6 bc ce 8d e0 bd cb 33 a1 bc
       0.23488005 -0.02613422 -0.10964547 -0.019678017
000090 14 9d 7b 3e f1 42 60 be 61 4b a9 3e 45 d2 17 3e
       0.2457164 -0.21900536 0.33065322 0.14826305
0000a0 e1 40 52 3d f4 5d dc 3d 31 3f b7 3d 0d 17 f4 bc
       0.051331405 0.10760108 0.089476 -0.029796148
0000b0 cc 5c 07 3e 54 24 77 3e 7d 12 53 3d ce 77 6d 3d
       0.13218993 0.24134952 0.051531304 0.057975583
0000c0 dc 7a 85 3d a3 d6 37 3d 56 5f 3c 3e 1a 5a 81 3d
       0.06517574 0.044882428 0.18395743 0.06316014
0000d0 52 94 e2 3c e5 ea 71 be 6e 26 83 be 45 36 9b bc
       0.027658615 -0.23624761 -0.25615257 -0.018946776
0000e0 fe f2 6f bd 04 5a da be 11 55 79 bd 1a 66 f5 3c
       -0.058581345 -0.426468 -0.06087214 0.029955912
0000f0 fb 3e 54 bd 16 8d 8d 3e d0 5c 22 3e c2 d3 64 3e
       -0.051817875 0.27646703 0.15855718 0.22346404
000100 fe 65 58 3d 91 ce ea 3d b0 b6 48 3e 9b 05 5a 3e
       0.052831642 0.11465181 0.1960094 0.21291201
000110 2f 1b 12 3e 3c b2 57 3e 4b 40 96 be 54 19 da bd
       0.14268182 0.21064085 -0.29345927 -0.10649362
000120 99 ff 00 3d 06 cc 74 3e a9 99 ab bd 65 99 78 be
       0.031493757 0.23905954 -0.08378918 -0.24277265
000130 10 1e 7f 3d 9f 30 1c 3e 3d 62 b2 3d 8c 9f 2d 3e
       0.06228453 0.15252922 0.08710144 0.16955394
000140 c2 a4 03 3e 8d 61 e6 bd ec 82 d0 3d 72 fd 0c 3d
       0.12855819 -0.11249075 0.10181221 0.03442139
000150 b0 ed ed bd 7d 9e 65 3e 5e 11 80 3e 51 59 4f be
       -0.11617601 0.2242374 0.2501325 -0.20248915
000160 6f 65 c5 be 5b 72 5d 3e ab 96 13 3d fd 76 a2 3d
       -0.3855395 0.21625654 0.03603236 0.079328515
000170 55 58 07 3d cb b4 75 bd c2 08 1c 3e fb 8d 25 3e
       0.033043224 -0.05998687 0.15237716 0.16167443
000180 44 d7 23 3e ad 97 96 3d b2 7b b4 3d 22 5a 62 bc
       0.16000086 0.073531486 0.088126555 -0.013815435
000190 2d 7c a0 be f2 79 f4 3d af 1d da be 29 69 1f 3f
       -0.3134474 0.11937322 -0.42600772 0.62269837
0001a0 c8 3a 19 bd 92 ff b9 bc 72 ce 2a be e4 6f b0 3e
       -0.037409574 -0.022704873 -0.16680315 0.34460366
0001b0 ff f2 09 be fa 86 99 3d 68 93 ae 3d 68 4a ac be
       -0.13471602 0.07496448 0.08524209 -0.33650517
0001c0 60 bc 62 3e d4 d8 03 be f4 d4 bb be e3 c1 70 3e
       0.22142172 -0.12875682 -0.36685908 0.23511462
0001d0 62 57 3e 3c 64 c2 65 3e a0 00 0f 3e e5 5e 6a be
       0.011617513 0.22437435 0.13965082 -0.22887762
0001e0 c7 80 be 3e cc 8e a5 be 2e a9 36 3e c1 9a a8 3e
       0.37207624 -0.32335508 0.17837974 0.32930568
0001f0 26 0a f3 3c 7d c4 65 bf a7 75 05 3f d7 a9 c5 3d
       0.029667925 -0.8975294 0.5213265 0.09651535
000200 be d6 54 bc 06 8e 09 be 35 0c 98 be 0c 81 ef bd
       -0.012990652 -0.13433084 -0.29696813 -0.116945356
000210 bc 18 96 bd 7e f7 8e bc f9 b3 3c be f6 6c 93 bd
       -0.073289365 -0.017451998 -0.18428029 -0.07198517
000220 76 68 7d 3e bd f6 42 3e c7 a4 54 3f 44 f4 8f bd
       0.2474688 0.19039436 0.8306393 -0.07029012
000230 19 9f e6 3c 8d 96 33 3e 6f 64 9c be e9 45 56 3e
       0.028152036 0.175379 -0.30545375 0.20925106
000240 9f 58 a9 be 33 26 88 be 9c 76 07 be 9d ff c0 be
       -0.33075425 -0.26591644 -0.1322884 -0.37695017
000250 b0 6c 28 3e a2 53 ee be 79 dd 5e 3c ad 52 42 3d
       0.16447711 -0.46548182 0.013602608 0.047442127
000260 54 23 aa 3e 56 6a fa 3e aa 77 a8 bd ac 4f 4a 3c
       0.33230078 0.48909253 -0.08225949 0.012348097
000270 fd b3 ea bc 5e 72 4d be 4d 92 e4 bc 27 46 03 3c
       -0.028650278 -0.20063159 -0.027901793 0.008012331
000280 25 24 0a 3e 80 67 c4 3e 9d af 82 3d d2 36 8c 3e
       0.1349035 0.38360214 0.06381152 0.27385575
000290 f7 3f 22 3e 00 b5 4f 3d 30 71 38 3e 39 78 21 3e
       0.15844713 0.050709724 0.18011928 0.15768518
0002a0 31 c5 e9 3d a8 2b 66 3e 93 e9 5f be 82 ff 8c 3c
       0.114145644 0.22477591 -0.21866445 0.01721168
0002b0 10 e0 a7 bd b2 96 f2 3d 15 e2 14 be f8 f5 e3 3d
       -0.081970334 0.11845149 -0.14539368 0.11130899
0002c0 79 8f a0 3e 91 06 ed ba 71 e9 01 3e 61 a4 6a 3e
       0.3135946 -0.0018083622 0.12686707 0.22914268
0002d0 a1 cd 01 3e f2 0a 4a be 82 e2 87 3e c5 a2 b5 3d
       0.12676097 -0.19730738 0.2654 0.088689364
0002e0 f7 51 0a bc 5b 1c 7e 3e aa 4c 74 3e 2e 59 d2 bd
       -0.0084423935 0.24815504 0.2385737 -0.10270916
0002f0 d5 18 bc bd 50 34 6a 3e 42 50 22 3e 63 06 ac 3d
       -0.09184424 0.22871518 0.15850928 0.08399656
000300 68 fe e6 3d ea 24 90 be f6 6e ab 3e e8 3d 54 3e
       0.11278993 -0.28153163 0.33483094 0.2072674
000310 aa 2c 9e bd f1 f0 a2 3e 45 64 9d 3e bb be 45 3e
       -0.07723363 0.3182445 0.30740562 0.19311039

lstm.weight_hh_l0 f4 [200, 50]
000000 da 67 ab 3d 78 cf 8c 3c 40 8d 07 3e b1 c8 a2 3b
       0.083694175 0.017188773 0.13237476 0.004967772
000010 d9 80 67 3e 71 cf bc bc 04 7f e1 bd bd b3 42 be
       0.22607745 -0.023048135 -0.110105544 -0.19013877
000020 40 d2 27 be 07 3f 2d 3e be 20 a7 3d be ea e2 bc
       -0.16388798 0.16918574 0.08160542 -0.027699824
000030 45 74 e1 bc 67 da 03 be 76 38 cc 3c ce 0a d4 3d
       -0.027521262 -0.12876283 0.024929266 0.10353623
000040 c8 8d c6 3d 64 a1 de bc c7 e4 b9 3c 4c c1 c6 bd
       0.096950114 -0.027176566 0.022692097 -0.09704837
000050 04 48 9e bd ec a0 df 3d 4d 88 50 be 7b ca 51 3e
       -0.0772858 0.10919365 -0.20364495 0.20487396
000060 ca 57 16 3e 20 bf 60 3e fc 98 e7 bd 6b 1c 88 bd
       0.14681926 0.21947908 -0.11308476 -0.06646045
000070 ef 26 52 bd c7 1f 3f be cf a1 38 be a9 99 1f 3e
       -0.05130666 -0.18664466 -0.18030475 0.1558596
000080 ca 06 df 3d 63 03 c1 bd ee 74 12 be aa 44 3a 3d
       0.10889967 -0.09424474 -0.14302418 0.04547564
000090 1b b3 41 3e 1c 41 aa bd 06 e1 33 be a7 d7 bf 3d
       0.1891598 -0.083132 -0.17566308 0.09367304
0000a0 56 21 ae 3d dc b0 e5 3d a7 13 85 3c 20 a5 1b be
       0.08502452 0.11215374 0.016244723 -0.15199709
0000b0 cf ec 49 be f6 02 2c bd 7e 43 bc bd 87 e2 04 be
       -0.19719242 -0.04199501 -0.091925606 -0.12977038
0000c0 fb 01 34 3e 99 f6 1b bd 3b a3 2c be 6a f3 4c bd
       0.1757888 -0.03807697 -0.16859142 -0.050036825
0000d0 d1 89 5d 3c 5c 5f 2f 3e 58 3b c7 bd 34 50 83 bc
       0.0135216275 0.1712622 -0.09728116 -0.016029455
0000e0 9b a3 b7 b9 d9 a6 f8 3d 6a 88 e4 bd db 91 2e bb
       -0.00035026376 0.12141199 -0.111588314 -0.002663723
0000f0 5e ee 62 3d ef 7a 55 3d ca a7 4d 3d 8b 3b a5 bd
       0.055403106 0.05211919 0.050208844 -0.080679975
000100 7b 8a 19 be eb 30 cc 3d 0a 20 17 3e 0b f2 4c bd
       -0.14994232 0.09970268 0.14758316 -0.050035518
000110 cb b4 04 be 90 a9 1d 3d ce a1 54 3c b2 0c 60 be
       -0.12959592 0.038491786 0.01297803 -0.21879843
000120 79 a6 97 3d 6b 7a f7 bb 1f 9f 6d bd 3c f7 8a 3d
       0.07404799 -0.007552435 -0.058013078 0.067854375
000130 94 f7 7d 3d 90 3e cf 3d cd 85 52 bd f5 05 b9 3d
       0.062003687 0.10119355 -0.051397134 0.09034339
000140 5c 6e 1a 3d c9 93 17 3e c1 e7 d3 3c ab 84 ad bc
       0.037702903 0.1480247 0.025867345 -0.021181425
000150 c9 db 83 3d 64 0f da 3d b8 1b 5d 3d 01 49 ea 3d
       0.06438405 0.10647467 0.053981513 0.11439706
000160 93 4c d1 bb 50 5f 3e 3d bc 7c 2b be 25 88 00 3e
       -0.006387302 0.046477616 -0.16746801 0.12551935
000170 d9 e8 25 3d aa bc 52 3d 96 4d 41 be 13 a7 ff 3d
       0.040505264 0.051449455 -0.18877253 0.12483039
000180 13 f1 00 3e 38 52 38 3d a0 e5 88 3d 30 fb 8b bd
       0.12591963 0.045000285 0.066844225 -0.068350196
000190 ce 14 07 be a9 92 d6 be 78 8c 20 3d e7 4a d2 bd
       -0.1319153 -0.41908768 0.03919646 -0.10268193
0001a0 c0 2c 65 3e 8c 14 e1 3d 01 94 39 be 92 8c 1e bf
       0.22380352 0.10990247 -0.18122865 -0.61933243
0001b0 fb 20 cd be a4 58 8b 3e 3f 4f 8a 3e dc 70 0c be
       -0.40064225 0.27216065 0.27013585 -0.13714927
0001c0 53 5c 0a bc c2 25 5f be 7d 97 35 be ec 0e 69 3e
       -0.008444863 -0.21791747 -0.1773357 0.22759598
0001d0 6b 8b 87 3e ed b4 68 3e 86 c4 b2 3d 05 7b 4a be
       0.26473555 0.22725268 0.0872889 -0.1977349
0001e0 ac ed b4 be f3 72 2f 3e c3 63 84 be 8d 50 2e 3e
       -0.3533758 0.17133693 -0.25857362 0.17022915
0001f0 a4 21 9e 3e fe 7c 8f 3e 74 31 5d 3d b8 71 64 be
       0.3088504 0.2802505 0.05400224 -0.22309005
000200 c0 14 1f 3e f3 6a ca bd ba 9e 45 be a0 e0 a3 3e
       0.15535259 -0.0988368 -0.1929883 0.32007313
000210 49 4d e4 3e 14 f3 de be 5f 50 a3 bd b3 eb a2 bd
       0.44590214 -0.4354483 -0.07974314 -0.07955112
000220 8b b9 45 3d 67 4b b2 be c4 0d fb be 6a 3e cd 3e
       0.04827265 -0.34823152 -0.4903394 0.4008668
000230 24 57 b8 3e 43 4b 88 3d 8a f3 d7 bd 10 e3 e5 be
       0.36003983 0.0665498 -0.10544498 -0.44899797
000240 00 3a e2 bb eb 9d 75 bd d2 a3 40 be 15 c6 b8 3c
       -0.006903887 -0.059965055 -0.18812492 0.02255539
000250 2e 4f 80 3e 7e c6 ac 3d 5b 45 8e be 8e 2b 16 bf
       0.2506041 0.08436297 -0.2778729 -0.5866021
000260 eb 6c 73 be f8 ff 4f 3e c3 be 0e 3f dd dc ed 3d
       -0.23772018 0.20312488 0.5575983 0.11614392
000270 61 4a f9 be 72 bf 3e bf c0 7d 23 bf fb 89 a9 3e
       -0.4868956 -0.7451087 -0.63863754 0.33113083
000280 bf 83 0b 3f 7f bc 2e bf 49 86 c7 3e c8 9c 1b bf
       0.54497904 -0.6825637 0.3896964 -0.60786104
000290 10 6f 97 be 02 cf 22 3f b0 d4 92 3e a4 f6 d8 3e
       -0.2957692 0.6359712 0.28677893 0.42375672
0002a0 23 c6 d9 3e 83 41 01 bf fc eb 5b bf f6 7a 02 3e
       0.4253398 -0.5049059 -0.8590696 0.12742218
0002b0 66 22 13 bf d6 c5 05 3f 57 6e bd 3e bc f4 80 3e
       -0.5747436 0.52255 0.36998245 0.25186718
0002c0 8e 5c cd 3d da 5c 09 bf 88 22 29 3f 8f 72 0d bf
       0.10027419 -0.53657305 0.66068316 -0.5525293
0002d0 0f 24 cb be 5b 39 09 3f 3e ef 02 3f 6c 01 e4 be
       -0.39675948 0.5360314 0.51146305 -0.44532335
0002e0 b7 2d 15 bf 4e a2 00 bf e1 8f 00 3f 20 42 07 bf
       -0.5827288 -0.5024766 0.5021954 -0.52835274
0002f0 a0 b8 dc be 83 3e e7 3e 89 c2 0e 3f d6 4e cb 3e
       -0.43109608 0.4516488 0.5576559 0.39708585
000300 2c f8 d4 be ed 07 3a bf 2b 6a 04 bf b6 f8 17 bf
       -0.4159559 -0.72668344 -0.517245 -0.5936388
000310 93 a5 92 be d9 9d 67 be c3 71 cb 3e 90 e0 46 be
       -0.28641948 -0.22618808 0.3973523 -0.19421601
000320 3c 1f 70 3d 00 54 9b bd d2 4d 20 3e b9 32 09 be
       0.058623537 -0.07584381 0.15654686 -0.13398255
000330 a7 2f 07 be f4 39 87 3d a9 2b 0c 3e 9f ed 40 bd
       -0.13201772 0.066028506 0.1368853 -0.047101613
000340 4b c4 3f 3d 99 60 b0 ba 34 e7 86 bd ec ef 0d bd
       0.04681806 -0.0013456523 -0.06587067 -0.034652635
000350 5e 3f 42 3d 60 fc 06 3e ba 04 74 bd 39 c1 17 be
       0.047423713 0.13182211 -0.05957482 -0.14819802
000360 4e c4 6a 3d 16 0f ca bc 3b e8 b3 bd a1 e0 13 3e
       0.057316117 -0.024665397 -0.08784529 0.14441158
000370 af 7d f8 bc f3 ef ef 3d b4 c4 d5 3d a4 99 91 bd
       -0.030333368 0.117156886 0.10437909 -0.07109383
000380 ce 57 11 3e fc f4 27 bd 89 b5 86 be c3 67 06 3d
       0.14193651 -0.04100512 -0.26310375 0.0328138
000390 25 af 6f bd 94 c3 1d 3e 5f 62 ac 3c 93 f5 ca 38
       -0.05851664 0.15406638 0.021043 9.677852e-05
0003a0 ee 71 35 bd d1 0e 06 3e 52 f0 b7 3b 81 c9 5b 3d
       -0.044298105 0.1309159 0.005613365 0.053658966
0003b0 10 2f 28 3d 0e cf d2 3d 33 0b 06 3d e8 fe 14 be
       0.041060507 0.10293399 0.032725524 -0.14550364
0003c0 fb d5 c4 bd 5c 25 9f bd 50 92 dc 3c c6 d7 9f 3d
       -0.09611126 -0.077707976 0.026925236 0.078048274
0003d0 d4 5b 20 3e f4 d3 38 3d e2 d0 d3 3b 65 90 1f 3e
       0.1566003 0.04512401 0.0064641098 0.15582426
0003e0 ec d8 99 3d 43 11 54 3e 8f c0 b6 bd e7 a4 c4 bd
       0.07512078 0.2070971 -0.089234464 -0.09601765
0003f0 e7 33 24 bd 15 4a 0f be 0f ff a6 bd 18 91 98 bd
       -0.04008856 -0.13993104 -0.08154117 -0.074495494

lstm.bias_ih_l0 f4 [200]
000000 21 ef 43 3e 58 dc 75 bd 01 73 a5 3e 7b fe 48 3f
       0.19134189 -0.06002459 0.32314304 0.78513306
000010 e4 13 ef bd 8b 82 b4 3c 72 4c 20 be 9d 83 33 bd
       -0.11673716 0.022034904 -0.15654162 -0.043826688
000020 87 44 13 bd 5d 2e 4e 3c 1d 49 cd 3d 21 b7 5b 3e
       -0.035954025 0.012584296 0.10023711 0.21456577
000030 b4 6e 2c 3e a9 c2 4c 3c 6d 05 37 3e c4 15 5f bd
       0.16839105 0.0124975825 0.17873164 -0.054464117
000040 37 66 22 bd 7e c4 5c bd 71 aa b9 bd d5 58 26 bd
       -0.03964826 -0.053898327 -0.09065712 -0.04061206
000050 bb 6a aa 3d ff 53 2a 3d 9b ec 00 3d 82 d2 91 3d
       0.083211385 0.04158401 0.031475645 0.07120229
000060 0b 4e 8f bd f5 3d 9f 3e e2 ab b0 3e e7 38 0e bd
       -0.069973074 0.31101957 0.34506136 -0.034722235
000070 d9 27 d3 bb ec 79 8b 3d 5c 79 5b bd 4b 98 db bc
       -0.006443959 0.06810364 -0.053582534 -0.026806017
000080 a7 bf d8 bd da 54 69 bd a0 4f 3e bd 68 5f db 3d
       -0.1058343 -0.056965686 -0.046462655 0.10711557
000090 25 0b e4 bd 18 f7 3e 3d f7 da 28 3f f4 88 ed bc
       -0.11134938 0.046622366 0.65959114 -0.028995968
0000a0 9c 11 d9 bd e8 7a a3 3d 4d 1c 41 3d 92 05 0c bd
       -0.10599062 0.07982427 0.04714613 -0.034185
0000b0 31 ed 7e 3e 74 c8 e8 bd dc 08 4d bc 0a 96 8d 3c
       0.24895169 -0.113663584 -0.012514319 0.017283458
0000c0 ff aa 01 3e b5 68 35 3e 0c db 0e 3d 30 ad 21 be
       0.12662886 0.17715724 0.034876868 -0.15788722
0000d0 5b 47 f8 bb bd d4 19 be e5 97 0c bc 20 97 13 3e
       -0.0075768656 -0.1502256 -0.008581136 0.14413118
0000e0 44 88 28 3c 31 a8 9b 3d c6 e2 63 3d ef 3f 8f bc
       0.0102863945 0.07600439 0.05563619 -0.01748654
0000f0 59 7e 0a bd eb d6 02 be 22 7b d8 bd 7b 36 40 3d
       -0.0338119 -0.12777297 -0.10570361 0.046926957
000100 30 85 df 3c 80 fa 47 bc 1d ab e6 3d be 14 1c be
       0.027285188 -0.01220572 0.11263106 -0.15242288
000110 82 67 9e 3d df 7f 5a 3d 5d 77 ae bd ed 3a 32 bd
       0.07734586 0.053344604 -0.085188605 -0.043513227
000120 78 c7 4b 3c 8a a2 02 be 3b 62 84 3d ee 4a 3a be
       0.012437694 -0.12757316 0.064640485 -0.18192646
000130 57 93 1f be 0b 1f 0f bd e6 9f af 3c c3 c9 3c 3d
       -0.1558355 -0.034941714 0.02143855 0.046090852
000140 18 10 13 be 1d 45 93 bc 7c 7b 21 be bc d0 15 bb
       -0.14361608 -0.017977292 -0.15769762 -0.002286001
000150 43 b1 54 bd 7e df 4f bd 1f d9 07 be 75 cd 2a 3d
       -0.051926862 -0.050750248 -0.13266419 0.041699845
000160 64 94 15 be 93 35 5d bd ca 30 34 be 5b 02 a7 3d
       -0.14607388 -0.05400617 -0.17596737 0.08154746
000170 a1 12 a6 3c bd 15 97 bc 2c bc 1a 3e 01 fa 54 3c
       0.020272555 -0.018442983 0.15110844 0.012999059
000180 82 7b 53 3d 0d d4 b2 bd c3 fc 9f bc a7 02 d1 bd
       0.051631458 -0.08731852 -0.019529706 -0.10205584
000190 69 02 43 3d 78 91 f4 bd da 53 84 bd e1 86 c5 3c
       0.04760972 -0.119418085 -0.06461306 0.024112167
0001a0 36 66 e8 3d b6 bc 35 bd a8 2b 6f bd fb 44 5a bd
       0.1134762 -0.044369422 -0.058391243 -0.05328844
0001b0 28 de cc bc e0 ea 42 bd f9 b1 90 3d 8a d8 05 bd
       -0.025008276 -0.047587276 0.070651956 -0.03267721
0001c0 75 53 8d bd 3c c2 94 3a 08 49 aa bd 51 11 21 bd
       -0.06900684 0.001134939 -0.08314711 -0.039323155
0001d0 88 c3 9f bd 90 c7 ee 3d fa a8 e0 3d 69 3b 83 bd
       -0.078009665 0.11659157 0.1096973 -0.06407816
0001e0 80 46 3f 3d 2b a6 05 bd a9 84 2b 3c a4 6a dc 3d
       0.046698093 -0.032629173 0.01046864 0.107625276
0001f0 4c 79 bf 3d e4 27 49 3d b1 92 fb bd d5 75 48 3d
       0.093493074 0.04911031 -0.122838385 0.0489405
000200 84 d4 30 3d 55 96 7d 3d 6d 70 ae bd ac 95 5a 3d
       0.04317142 0.061910946 -0.08517537 0.053365394
000210 a2 33 84 bd dd 42 00 3d bc 00 78 bb 36 0d 19 3d
       -0.06455161 0.031313766 -0.0037842235 0.037366115
000220 e7 9a 63 bd 70 bd 0f 3d 86 46 66 bd c8 70 65 bd
       -0.05556765 0.03509277 -0.0562196 -0.05601576
000230 be 04 15 3c 63 39 4d 3d e8 72 96 3d de d2 68 3d
       0.009095369 0.050103556 0.073461354 0.056841724
000240 f9 2f 98 bd cb 6e d5 bc 88 7e 5b 3d bc dc 12 be
       -0.07431025 -0.026053807 0.053587466 -0.14342016
000250 eb 3c 2a 3d 0e 08 9e 3d 94 a0 1d 3e 9a 8c 81 3d
       0.041562002 0.0771638 0.15393287 0.06325646
000260 93 42 e5 3e 88 52 22 3f 45 f6 e9 bd 9b bf 96 bd
       0.44777355 0.6340718 -0.11423925 -0.073607646
000270 36 d7 d8 3c de 6b 9d bd dc 63 a5 b7 48 ca 07 bd
       0.026469808 -0.0768659 -1.9716033e-05 -0.033151895
000280 4f 0c f3 bd 38 9b d9 3d 52 55 c5 bc 21 e6 8f 3c
       -0.11867582 0.10625309 -0.024088535 0.017565789
000290 ab a4 11 3e 2f 0a 2f bd d9 b3 d6 bc ed 15 b5 bc
       0.14222972 -0.04273432 -0.026208805 -0.022105182
0002a0 15 f7 24 bc cc 15 fb 3c 67 67 4e 3e 70 be 5b bc
       -0.010068675 0.030650042 0.20156632 -0.013412103
0002b0 98 e0 fb 3d 35 fd 31 3e b6 dd 86 bd e0 45 fd 3e
       0.12298697 0.17381747 -0.06585257 0.49467373
0002c0 32 83 cf 3e cf 17 02 be b9 97 c9 bc 24 c0 53 bd
       0.40529782 -0.12704395 -0.02460848 -0.05169691
0002d0 57 30 17 3e dd 6f 6c bd 74 f5 5c bd 70 7e ba 3d
       0.14764534 -0.05772387 -0.05394502 0.09106147
0002e0 e3 fc 62 bc bf 1d 2b be a8 57 12 3e cb 9e 41 3c
       -0.013854238 -0.16710566 0.1429125 0.011817644
0002f0 aa af 2f 3f 2e 66 13 bc fa f2 da bd 7e 81 fc 3c
       0.6862742 -0.0089965295 -0.10690875 0.030823465
000300 77 da aa 3d fa bf f2 bb 5b 91 22 3e 74 6b ab bd
       0.0834245 -0.0074081393 0.15875761 -0.083701044
000310 5b a0 2d 3d d9 d9 83 3e ef f3 48 3c ab e1 c4 3e
       0.042389255 0.25752142 0.01226519 0.3845342

lstm.bias_hh_l0 f4 [200]
000000 d9 3d c8 3d 4c 15 bc bd 1b 66 9d 3e 3f 88 3c 3f
       0.097774215 -0.091837496 0.30741963 0.73645395
000010 eb 94 ed bc 5d 57 a0 bd ca e9 6e 3d 33 56 46 3d
       -0.029001674 -0.07829163 0.058328427 0.04842205
000020 79 fc e0 bd 75 03 0e 3c 78 ff 01 39 a0 f4 db 3d
       -0.10985655 0.008667816 0.00012397568 0.10740018
000030 09 af 17 3d db 0b de 3d b2 5d 2c bd 09 d2 3f bc
       0.03703216 0.10842105 -0.042081542 -0.011707791
000040 11 27 21 3d c2 96 88 bd 2f 31 88 bc 38 03 0e be
       0.039343897 -0.0666938 -0.016625015 -0.13868415
000050 af 72 db 3d 0a b2 fa 3d 50 b4 d6 bc 18 f3 e6 bd
       0.107152335 0.122409895 -0.026209027 -0.11276835
000060 35 32 9d 3d df 53 c6 3e 44 80 fc 3e 5a 0f cf 3d
       0.07675592 0.38735864 0.4931661 0.1011035
000070 07 de b2 3d fc 92 d4 3d 40 99 0a 3e 31 a6 2d 3c
       0.087337546 0.103795975 0.13535023 0.010598705
000080 ce 13 25 3d c8 17 7f bd 5b 0f 8c 3d f5 10 06 be
       0.04030209 -0.06227854 0.06838866 -0.13092406
000090 c5 c3 35 3c 7f 44 a6 3a a8 4f 20 3f 20 32 26 be
       0.011094038 0.0012685208 0.62621546 -0.16230059
0000a0 73 cb 99 bc 66 db b0 bc cd 49 06 bd 9a 38 86 bd
       -0.01877377 -0.021588992 -0.032785226 -0.06553765
0000b0 1a d6 6a 3d 7c 8b d6 3d ed 96 35 3d cc 3e 0a 3e
       0.05733309 0.10475823 0.044333387 0.13500518
0000c0 16 5b a2 bc a6 09 85 3e 19 56 96 bd 3a d9 e3 3d
       -0.019818824 0.25983924 -0.073406406 0.11125417
0000d0 8d 64 3e be 2a 69 67 bd 8c e5 2a be c6 e2 c8 bd
       -0.18593045 -0.056496777 -0.16689128 -0.098088786
0000e0 a0 09 2f be ad f1 cf bd 78 26 0d be 5a f5 b6 bd
       -0.17093515 -0.10153518 -0.13784206 -0.08933516
0000f0 04 ab 52 bd 06 6e 0c 3d c8 11 5e bd cb e5 82 3d
       -0.051432624 0.034284614 -0.054216176 0.06391486
000100 5a 92 dd bd 66 cc 13 be 0d a1 ef bd 34 c7 02 be
       -0.1081893 -0.1443344 -0.1170064 -0.12771302
000110 65 89 e1 3c f5 3f b1 3d 23 75 a2 3d ed 4c 7b bd
       0.027531335 0.08654777 0.07932498 -0.06135266
000120 6f b4 b4 3d 4a d3 f0 bc 96 5d a4 3d bc 5c 4e be
       0.088234775 -0.029397625 0.080256626 -0.20152563
000130 de 2e 8e bd db 66 2a bd f7 ae af 3d f9 df b2 bd
       -0.06942533 -0.041601997 0.08578294 -0.08734126
000140 6e 66 a3 3d c2 fa 0c bd cb 6f fb bd 9e 57 c5 bd
       0.07978521 -0.03441883 -0.12277182 -0.09635852
000150 76 7d 1d be 60 a3 79 3d 37 dd 21 3d 1d 67 12 be
       -0.15379891 0.060946822 0.039517608 -0.14297147
000160 60 e7 0d be c7 e9 37 3d 1d b9 50 3d ad 93 8f 3d
       -0.13857794 0.04490068 0.050957788 0.07010589
000170 cc 38 a6 3d 02 2b 98 bd fc 71 33 3e 43 45 0c be
       0.08116302 -0.07430078 0.1752395 -0.13698296
000180 03 9c c1 bd 39 10 a5 3d 0b 1e 77 3d bd 31 79 bd
       -0.09453585 0.08059735 0.060331386 -0.06083845
000190 69 84 90 bd 2d ef 86 3d 72 df 51 3d 0b 11 9f 3d
       -0.07056505 0.06588588 0.051238485 0.077669226
0001a0 e2 51 9c bc 38 e6 39 3d e8 d8 af bd ff 44 d0 bd
       -0.019082014 0.04538557 -0.085862935 -0.1016941
0001b0 be 6d 9f bd a5 e6 8f 3d a1 8f 58 bd 4a 62 3e 3c
       -0.077846035 0.07026414 -0.05287135 0.011620114
0001c0 bf 29 a7 3d a4 05 b1 bd 9d 25 4e 3d 10 3f a4 3d
       0.08162259 -0.08643654 0.05032884 0.08019841
0001d0 82 fd 8b 3d c0 64 de 3d 37 9f 6c 3d 6b 6e ac bd
       0.06835462 0.1085906 0.057769027 -0.08419498
0001e0 06 88 e3 bd fe 47 84 bc b4 b9 74 bd 17 dc 1a 3d
       -0.11109929 -0.01614761 -0.059747413 0.03780755
0001f0 06 a7 90 3d ea c3 09 3d cd 16 18 3e bd c4 1f bd
       0.07063107 0.033634104 0.14852448 -0.039005984
000200 80 f9 a1 3d ef 0c 01 be b3 19 5d bd 46 5d 90 ba
       0.079089165 -0.1260259 -0.053979587 -0.0011014126
000210 51 11 9f 3d ea f0 99 bd 1a f0 d1 bd 6e 18 d9 bd
       0.07766975 -0.07516654 -0.10250874 -0.10600363
000220 7d dc 2a 3d 10 b8 4c 3d 04 5a ee 3d 5d ba b9 3d
       0.04171418 0.049980223 0.11638263 0.09068749
000230 ca 4c ba 3d fc 9c e2 3d 57 91 04 be 3e 65 05 be
       0.090966776 0.11065099 -0.12946068 -0.13026902
000240 0f eb e5 3c 44 3b ca bd 84 4d b5 3c 9e a1 ee 3d
       0.028066186 -0.09874585 0.022131689 0.1165192
000250 78 8e 5a bc 37 c4 42 bd 9c 32 82 3d 4e 9c d2 bd
       -0.013339631 -0.047550406 0.06357309 -0.10283719
000260 4b c9 db 3e ba 84 1e 3f 1d 6d 97 3d 15 ce 69 3d
       0.42927012 0.61921275 0.073938586 0.0570813
000270 16 a2 05 bd 5e ff e5 3d 2f 26 4d bd 12 67 04 3d
       -0.03262528 0.11230348 -0.050085243 0.032324858
000280 e5 54 23 3c ba 63 80 bd a8 ca 2c bd 17 b8 f5 3d
       0.009968971 -0.06269021 -0.042185456 0.11998003
000290 3a f8 68 3d 15 0e 8d bd 24 df b9 bd 1d 41 64 ba
       0.056877352 -0.068874516 -0.09075764 -0.00087072124
0002a0 40 d3 dc bd 2d e6 49 bd 59 8b 5c 3e f3 e7 83 3e
       -0.1078248 -0.04929178 0.21537532 0.257629
0002b0 d8 ce ea 3d 5e 2a 5b bb 24 fa ea bd 88 2a fb 3e
       0.114652336 -0.0033442 -0.11473492 0.49055886
0002c0 3c 96 a7 3e 03 22 05 be 25 b2 8a 3b a8 cb 2c bd
       0.32731807 -0.13001256 0.0042326623 -0.04218641
0002d0 91 78 28 3e 3f 68 08 3d ce 15 03 3d 39 1b 7f 3c
       0.16452242 0.03330254 0.032003216 0.015570455
0002e0 fe 1e e2 3d ef 6a 31 be 7c f0 61 3c 64 6b 22 3d
       0.110410675 -0.17325948 0.013790246 0.039653197
0002f0 04 33 0b 3f de 1e ac 3d 64 37 05 bd 29 af 14 3c
       0.5437472 0.08404325 -0.032523528 0.009074965
000300 df 64 94 3d 2f af 84 bd 53 52 32 3e 5e 13 b2 3d
       0.07245802 -0.06478726 0.17414217 0.086951
000310 89 c2 8d 3d b8 24 6a 3d 57 0b 80 3b fd d5 98 3e
       0.0692187 0.057163924 0.003907602 0.2985076

fc.weight f4 [1, 50]
000000 03 c2 19 be 8e d3 09 bd f7 5f a4 be a9 4d 0b 3f
       -0.15015416 -0.03364902 -0.32104465 0.54415375
000010 70 66 8f bd e3 3b 03 3e 11 72 db 3c 40 f6 11 3e
       -0.0700196 0.12815814 0.02678779 0.14254093
000020 32 90 d5 ba d7 51 4f 3d b5 f7 0c 3c 7a b0 29 be
       -0.0016293584 0.050615158 0.00860398 -0.16571227
000030 8a 53 aa 3d 97 d7 f7 bd 34 9f 49 be d0 c9 5b 3d
       0.08316715 -0.121016674 -0.19689637 0.05365926
000040 8c ba c5 3d aa bb c6 3d cc 60 23 3e cc ad 71 bd
       0.096547216 0.09703763 0.15954894 -0.059003636
000050 b3 00 55 3e 10 27 13 be 28 e4 ac 3d e1 f7 32 3e
       0.20801048 -0.1437037 0.08441955 0.17477371
000060 e0 ac b0 bd e9 52 6d be 1b 70 9e 3e c7 68 5d bc
       -0.08626723 -0.23176159 0.30944905 -0.01351375
000070 c5 eb c4 3d 21 66 1f be e2 75 19 be 02 cb f4 bd
       0.09615282 -0.15566303 -0.14986375 -0.11952783
000080 9b c8 46 3d f4 e4 e2 bd d5 b1 08 bd f4 81 cc bc
       0.048531156 -0.110788256 -0.03337272 -0.02496431
000090 e1 55 e8 3d 27 95 44 3d b1 35 a3 3e cf 73 b6 3d
       0.11344505 0.047993805 0.318769 0.089088075
0000a0 ee 64 70 3d a8 0b b0 3d 30 e7 1f be 75 3b 3a 3c
       0.058690004 0.08595973 -0.15615535 0.011366715
0000b0 f7 88 5e be 3a 61 11 be e7 ee e8 bd a7 8e 66 be
       -0.21731935 -0.14197245 -0.11373692 -0.22515355
0000c0 e5 30 bb 3d 77 0a a4 be
       0.09140185 -0.32039234
